cluster.tflite (tflite, 2256 bytes, 8 tensors)

Const_1 f4 [4]
0	0xbe131e32	-0.14366987
1	0x40037c3c	2.0544577
2	0xbfd9ce81	-1.7016145
3	0x3f903cc5	1.1268545

Const_3 f4 [3]
0	0xbe1bf8bc	-0.15231603
1	0x3f7e4649	0.99325997
2	0xbd8ff44f	-0.0702902

Const_5 f4 [4]
0	0xbf613fad	-0.87987787
1	0x3f8e425e	1.1114004
2	0xbfa4e499	-1.2882262
3	0x404b3930	3.1753654

Const_7 f4 [6]
0	0x40f44b37	7.6341815
1	0x41011454	8.067463
2	0x40f24ea1	7.5720983
3	0x4102839f	8.157134
4	0x40f4c412	7.6489344
5	0x418061a1	16.04767

MatMul f4 [4, 6]
0	0x3dcf2248	0.101139605
1	0xbacbf900	-0.0015561879
2	0x3ae0cb00	0.0017150342
3	0x3eb3de04	0.35130322
4	0x3e3a9b20	0.18223238
5	0x3e8624dc	0.26199996
6	0xbded483f	-0.115860455
7	0x3e1ef981	0.15524866
8	0xbe5bf2da	-0.2147936
9	0x3e5724ae	0.21010086
10	0xbbd39ab9	-0.0064576534
11	0x3f028fcb	0.5100066
12	0x3a9efa07	0.0012128957
13	0x3b3e486a	0.0029034861
14	0x3baf328b	0.0053466014
15	0x3b20c941	0.002453402
16	0x3b284e8c	0.0025681583
17	0x3d0dc376	0.034610234
18	0xbbbeea0d	-0.005826241
19	0xbc022af5	-0.007944812
20	0xbc2ec434	-0.010666896
21	0xbbed3fed	-0.0072402866
22	0xbbfb0f99	-0.0076617715
23	0x3b1989fb	0.002342819

MatMul_1 f4 [3, 4]
0	0xbe49e5da	-0.19716588
1	0x3f3bbf34	0.7333863
2	0xbedc9dd6	-0.4308917
3	0x3e9748ea	0.29547817
4	0x3f58a135	0.8462098
5	0xbe0f08a7	-0.13968144
6	0xbe4c1aef	-0.1993215
7	0xbfa2724f	-1.2691134
8	0x3e442555	0.19154866
9	0xbfc08656	-1.5040996
10	0xbda7a59b	-0.081858836
11	0xbf84f214	-1.0386376

MatMul_2 f4 [4, 3]
0	0xbdbfe1a4	-0.093692094
1	0xbfd3b0eb	-1.6538366
2	0xc02b14c2	-2.673142
3	0xc0072ccc	-2.1121092
4	0xbf89aef5	-1.0756518
5	0xbf4079f2	-0.75186074
6	0x3fd2b719	1.6462127
7	0xc0443ae3	-3.0660942
8	0xbff2ed94	-1.8978753
9	0xc030075b	-2.750449
10	0xbf439963	-0.76405925
11	0xbebd526f	-0.36976954

MatMul_3 f4 [6, 4]
0	0xc1d1070b	-26.128439
1	0x40891510	4.283821
2	0xc15a1164	-13.629246
3	0x40f64ba2	7.6967325
4	0xc1d0bb58	-26.091476
5	0x408775b9	4.2331204
6	0xc15aaa34	-13.6665535
7	0x41046152	8.27376
8	0xc1d0f51f	-26.119688
9	0x4088e2f2	4.2777033
10	0xc15a134f	-13.629714
11	0x40f87436	7.764186
12	0xc1d12b41	-26.14612
13	0x408c2173	4.379083
14	0xc15a235d	-13.633634
15	0x40e4388b	7.131902
16	0xc1d113d8	-26.13469
17	0x408a4519	4.320935
18	0xc15a2056	-13.6328945
19	0x40eeda1c	7.4641247
20	0x419d22cc	19.64199
21	0x41eceee5	29.616648
22	0xc0d36889	-6.6065106
23	0x418919e5	17.137644
